Chapter 09/lunar_lander/saved_models/trained_dqn_pt_agent.pth (torch, 21847 bytes, 6 tensors)

fc1.weight f4 [64, 8]
0	0x3e4daa47	0.20084487
1	0xbdb400cc	-0.087892145
2	0x3f864def	1.0492533
3	0xc01a6ce7	-2.4128969
4	0x3e861d78	0.26194358
5	0x3e2d1e96	0.16906199
6	0x3f24249d	0.6411837
7	0x3e9811fb	0.29701218
8	0xbf721e40	-0.9457741
9	0xbe5b56e5	-0.21419866
10	0xbe8b8ad0	-0.27254343
11	0x3d205939	0.03914759
12	0xbe52d29f	-0.20588158
13	0xbf6328a4	-0.8873389
14	0xbf73722b	-0.9509608
15	0xbf2e5eff	-0.681137
16	0xbf2dc877	-0.6788401
17	0xbf2220bf	-0.63331217
18	0x3dc8e9a2	0.09810187
19	0x3fa3ebe3	1.2806362
20	0x3fbba630	1.4660091
21	0x3ef507a3	0.4785739
22	0xbe86aedb	-0.2630528
23	0xbfff38db	-1.9939226
24	0xbf341731	-0.7034789
25	0x3beececd	0.007287836
26	0xbc93337f	-0.017968891
27	0x3ebf1c47	0.3732626
28	0x3f7a6866	0.9781555
29	0x3f4543ca	0.7705656
30	0x3eb57c8a	0.35446578
31	0x3ecd9f88	0.40160775
32	0x3f1727de	0.5904521
33	0xbf377c04	-0.7167361
34	0x3fc18b6c	1.5120673
35	0x3c7e8362	0.015534254
36	0xbe995fa4	-0.2995578
37	0x3c17df94	0.009269614
38	0x3f58784f	0.84558576
39	0xbd3bd8d4	-0.04586108
40	0xbdd5bf53	-0.10436883
41	0x3e8e1406	0.27749652
42	0x3d67eec0	0.056624174
43	0x3e08c13b	0.13354962
44	0xbf15cf0d	-0.5851906
45	0xbf8968d5	-1.0735117
46	0x3c0a41a0	0.008438498
47	0x3eefcc04	0.4683534
48	0xbe3a11b6	-0.18170819
49	0xbeb18c1e	-0.34677213
50	0x3d502f75	0.05082651
51	0x3e2260f0	0.15857291
52	0x3f3f5491	0.74738413
53	0x3f7b3fa0	0.9814396
54	0x3e9afd6d	0.30271474
55	0x3e1b9d3c	0.15196699
56	0xbf2f2db7	-0.6842913
57	0x3bdea2dd	0.006794317
58	0x3e83a077	0.25708362
59	0xbef6671f	-0.4812555
60	0x3da7c2e5	0.0819147
61	0x3f4cf943	0.80067843
62	0xbd697c66	-0.0570034
63	0x3bc06fc8	0.0058727004
64	0xbf96f6a6	-1.1794021
65	0xbfcdbaf6	-1.6072681
66	0x3e52ff3c	0.20605177
67	0x3f979d9e	1.1844976
68	0x3f2e141e	0.67999446
69	0xbeb86827	-0.36016962
70	0x3ccceeca	0.025016207
71	0xbe015e0b	-0.12633531
72	0xbe97f0ed	-0.29676
73	0xbf4e4dbe	-0.80587375
74	0xbecd459f	-0.4009218
75	0xbfa796f6	-1.3092945
76	0x3e3ecab1	0.18632008
77	0xbc8a65f8	-0.016894326
78	0x3ee71bde	0.45138448
79	0xbc3ff386	-0.011715775
80	0xbf891cc3	-1.0711902
81	0x3de4693d	0.11152885
82	0xbf762a6c	-0.9615848
83	0xbcb4f545	-0.02208961
84	0xbeb0dcab	-0.34543356
85	0xbeae3308	-0.3402331
86	0xbe2ae6ab	-0.16689555
87	0xbf0358dc	-0.51307464
88	0xbeacd8b6	-0.33759087
89	0x3ea414ae	0.32047027
90	0x3fd981c6	1.6992729
91	0x3d26545a	0.040607788
92	0x3f875e8a	1.0575726
93	0x3ed67d5f	0.41892526
94	0xbe67edf8	-0.22649372
95	0x3e68fc58	0.22752512
96	0xbf5f05fd	-0.8711851
97	0x3e6dd45d	0.23225541
98	0xbe773f32	-0.24145201
99	0xbe23822d	-0.15967627
100	0xc02f2dbf	-2.7371671
101	0xbf05fd21	-0.5233937
102	0xbf0d84b1	-0.55280596
103	0xbf0a83b0	-0.5410719
104	0x3eb8e632	0.36113125
105	0xbfd95ad0	-1.6980839
106	0xbe26bdde	-0.16283366
107	0xbff0bb7e	-1.8807218
108	0xbe810f64	-0.25207055
109	0x3de42dca	0.11141546
110	0x3dad7439	0.08469433
111	0x3e7aab6a	0.24479452
112	0x3e324438	0.17408836
113	0xbd090f11	-0.033461634
114	0xbf3e8590	-0.7442255
115	0xbe343813	-0.17599516
116	0x3d8bebd4	0.0683209
117	0x3f51e89a	0.81995547
118	0x3eac1e2d	0.33616772
119	0x3f0e7777	0.5565104
120	0xbfa1d709	-1.2643749
121	0xbea357e3	-0.3190299
122	0xbf72604b	-0.9467818
123	0xbea67943	-0.3251439
124	0x3eb28ec5	0.3487455
125	0xbb9c58f7	-0.0047713476
126	0x3e24876c	0.16067284
127	0x3f3acf49	0.7297254
128	0xbfc1175f	-1.5085257
129	0x3e4a9aa7	0.19785558
130	0xbf741e70	-0.95358944
131	0xbf12e05e	-0.5737361
132	0xbce5704b	-0.028007647
133	0xbde57d93	-0.11205592
134	0xbcfdffc9	-0.031005757
135	0x3cda1a1f	0.026623784
136	0x3ea2fd16	0.31833714
137	0xbe7171b4	-0.2357853
138	0x3ecf96a3	0.40544614
139	0xbf1d92ad	-0.61551934
140	0x3ecd566f	0.40105006
141	0x3fdf07fb	1.742431
142	0x3f017923	0.50575465
143	0x3eb1a55c	0.34696472
144	0xbd6f9f2e	-0.058501415
145	0xbf89171d	-1.0710179
146	0xbf066fc0	-0.52514267
147	0x3ed833ff	0.4222717
148	0x3fc34c0d	1.5257584
149	0x3ec970c7	0.39343855
150	0xbfa33b93	-1.2752556
151	0xbe12044a	-0.14259449
152	0xbfaf3766	-1.3688781
153	0xbde0c721	-0.10975481
154	0xbf6cb1d0	-0.9245882
155	0x3d3e7711	0.04650027
156	0x3e5e4d7f	0.2170925
157	0xbea75d13	-0.32688197
158	0x3e8594ae	0.26089996
159	0xbe8846bf	-0.26616475
160	0xbf28cafa	-0.6593472
161	0x3eec13f0	0.4610896
162	0x3f888ead	1.0668541
163	0xbea596a7	-0.323415
164	0x3f4baf12	0.7956401
165	0x3e17801e	0.14794967
166	0xbf32bee2	-0.69822514
167	0xbf0f5332	-0.5598632
168	0x3f07016d	0.5273655
169	0x3efd65c6	0.4949171
170	0x3f9e1bfe	1.2352293
171	0xbe8d58d9	-0.27606848
172	0xbef9c6d2	-0.487845
173	0x3ec326c2	0.38115507
174	0x3e6be0c5	0.23034962
175	0x3d543b68	0.051814467
176	0xbebd4d8c	-0.36973226
177	0x3ea51d32	0.32248837
178	0x3f08143b	0.5315587
179	0xbe6981db	-0.22803442
180	0x3f8a8217	1.082095
181	0x3f1f9caa	0.62348425
182	0x3e8ed110	0.27893877
183	0xbf3a28f2	-0.7271873
184	0xbf5462ef	-0.8296346
185	0x3ecd77ad	0.40130368
186	0xbf4c0c14	-0.7970593
187	0xbf03ced2	-0.5148746
188	0x3f1faeb9	0.6237598
189	0x3eae4cef	0.3404307
190	0xbebd75b5	-0.37003866
191	0xbc8dd481	-0.017313244
192	0xbf56918b	-0.8381583
193	0xbe49a5d2	-0.19692162
194	0xbe372f11	-0.17889048
195	0xbe82e6e2	-0.25566775
196	0xbe43febc	-0.19140142
197	0xbceba2db	-0.028764179
198	0x3f26d60f	0.6517038
199	0x3d61f74e	0.05516749
200	0xbe2b5642	-0.16732123
201	0x3eb61182	0.35560232
202	0xbed8d344	-0.42348683
203	0x3ea519c8	0.32246232
204	0xbd53db29	-0.05172268
205	0x3f46975d	0.7757471
206	0x3f04c277	0.5185923
207	0x3e45b85e	0.19308612
208	0x3dd48191	0.10376275
209	0x3ea62c77	0.324558
210	0xbf0100e4	-0.50391984
211	0x3db14d46	0.08657317
212	0x3f3d91b2	0.7405044
213	0xbdf491d1	-0.11941875
214	0xbf5f8401	-0.87310797
215	0xbfaf6a4c	-1.3704314
216	0xbdb68ef7	-0.08913987
217	0xbf1248e1	-0.57142454
218	0xbf64bc65	-0.8934997
219	0xbf34cffc	-0.7062986
220	0x3f9c2b39	1.220069
221	0x3f66ec0a	0.9020392
222	0xbf036576	-0.5132669
223	0xbf349a71	-0.7054816
224	0xbfa674d8	-1.3004408
225	0xbeeaa285	-0.45827118
226	0xbe9a32ce	-0.30116886
227	0x3e5e0cca	0.21684566
228	0xbefae08e	-0.48999447
229	0x3f0008bf	0.50013345
230	0x3e99e14a	0.30054694
231	0xbe74a939	-0.23892678
232	0x3f4bf1aa	0.79665625
233	0x3e54a520	0.20766115
234	0x3f5d2c42	0.8639566
235	0x3e8fd950	0.28095484
236	0x3fa35061	1.2758905
237	0x3fcce9b8	1.6008825
238	0x3d3dba1c	0.046320066
239	0x3e0a8bbc	0.13529867
240	0x3e3be8da	0.18350545
241	0xbf49d0ce	-0.78834236
242	0x3f4a5ca2	0.79047596
243	0xbecd1bf5	-0.40060392
244	0xbf83b9a0	-1.0291023
245	0xbed3e891	-0.41388372
246	0xbf1c8adf	-0.611494
247	0xbe7ff751	-0.24996687
248	0xbecbfdd8	-0.39842105
249	0x3f142882	0.5787431
250	0x3f77d8e5	0.9681533
251	0xbf433b0c	-0.76261973
252	0x3f8b4e9e	1.0883367
253	0xbf640e20	-0.89084053
254	0x3d158410	0.036502898
255	0xbd1303ab	-0.03589217

fc1.bias f4 [64]
0	0x3d9e6642	0.07734348
1	0x3e7ab5df	0.24483441
2	0xbe19d8a1	-0.15024044
3	0x3e81f99b	0.25385746
4	0xbef4774e	-0.47747272
5	0x3de57516	0.11203973
6	0x3ee86caf	0.4539542
7	0x3ef8f777	0.486263
8	0x3ef49560	0.47770214
9	0x3e6ca65c	0.23110336
10	0xbf6080c7	-0.876965
11	0x3eca3f42	0.39501387
12	0xbec94e52	-0.39317566
13	0xbed42db3	-0.41441116
14	0xbed2122c	-0.4102949
15	0xbe54bf27	-0.20776044
16	0xbaa92dba	-0.0012907304
17	0xbedcdeb9	-0.43138674
18	0xbf83da57	-1.0301007
19	0x3ccde63d	0.0251342
20	0xbf0eb45c	-0.55743957
21	0x3f0ddb0a	0.5541235
22	0xbf019df0	-0.5063162
23	0x3ebaba92	0.36470467
24	0xbd42c98e	-0.0475555
25	0x3f3014ed	0.6878193
26	0xbef43af2	-0.47701222
27	0xbe521115	-0.20514329
28	0xbf6ceefc	-0.9255216
29	0xbe912b0f	-0.28353164
30	0xbe476b12	-0.19474438
31	0x3e1f11e5	0.1553417
32	0x3dff77c2	0.12474014
33	0xbe833aa4	-0.25630677
34	0xbe379907	-0.17929469
35	0x3f1d17e6	0.6136459
36	0xbe9e060a	-0.30863982
37	0x3eec4910	0.46149492
38	0x3cf0f5e3	0.029414123
39	0x3e9ae993	0.30256328
40	0xbf997081	-1.1987458
41	0x3f731fae	0.94970214
42	0xbc5122ca	-0.012764642
43	0xbea2a78d	-0.31768456
44	0xbf680537	-0.9063296
45	0x3f07f5a7	0.5310921
46	0xbbf6f8fc	-0.0075370055
47	0x3f8f0b44	1.1175313
48	0xbec692f8	-0.38784003
49	0x3ed4f968	0.41596532
50	0xbe263405	-0.16230781
51	0x3e9ba27f	0.30397412
52	0x3f9d9249	1.2310268
53	0xbef41f54	-0.4768015
54	0x3f1539c1	0.5829125
55	0x3f3bff3b	0.73436326
56	0xbf03940e	-0.5139779
57	0x3f1eab1f	0.6197986
58	0x3f81fe10	1.0155659
59	0x3e8997c5	0.26873603
60	0x3f33f00b	0.7028815
61	0x3efec078	0.49756217
62	0x3f3ff534	0.74983525
63	0xbe9d0c56	-0.30673474

fc2.weight f4 [64, 64]
0	0x3f319e7d	0.6938246
1	0xbf14c8c9	-0.58118874
2	0x3fb77ced	1.4334999
3	0xbeedc4b5	-0.46439138
4	0xbf89731b	-1.0738252
5	0xbf7a3154	-0.9773152
6	0xbee68a14	-0.4502722
7	0xbd0cd78a	-0.03438524
8	0x3f5b961a	0.8577591
9	0xbc3608a2	-0.011110457
10	0xc0079006	-2.1181655
11	0x3e909dad	0.28245297
12	0x3f5b32dd	0.85624486
13	0xc0286890	-2.631382
14	0xbf91c92a	-1.1389515
15	0xbf15a63e	-0.5845679
16	0xbfb38484	-1.4024816
17	0x3f2ab34c	0.66679835
18	0xbfaa1a88	-1.3289347
19	0xbfd1c76d	-1.6388985
20	0x3f60f19a	0.87868655
21	0xbf739f68	-0.9516511
22	0xbfdd66b8	-1.7296972
23	0xbec71f78	-0.38891196
24	0xbf3fa499	-0.7486053
25	0x3e8c46cd	0.27397767
26	0xbf95c1a0	-1.1699715
27	0xbf5e80bd	-0.8691519
28	0xc00bcedb	-2.1845005
29	0x3f1386a0	0.57627296
30	0xbfd5ad57	-1.6693524
31	0x3e8fab9b	0.28060612
32	0xbf4879ed	-0.78311044
33	0x3ffab38c	1.9586043
34	0x3f832dbf	1.0248336
35	0xbf4d493e	-0.80189884
36	0xbef9a5dd	-0.48759356
37	0xbd2bf2f7	-0.041979756
38	0xbf4ca81f	-0.7994403
39	0x3f039bf6	0.5140985
40	0xbfce509a	-1.6118348
41	0x3f1900f7	0.597671
42	0x3fcfa812	1.6223166
43	0x3f324719	0.69639736
44	0xbfb3be94	-1.4042535
45	0x3f078efa	0.5295254
46	0xbeff0b4b	-0.49813303
47	0x3f0552a2	0.5207921
48	0x3f939fb2	1.153311
49	0xbf232322	-0.63725483
50	0xbf85e970	-1.0461864
51	0x3f0fdc30	0.56195354
52	0x3fb259e9	1.3933688
53	0x3fb34a2a	1.4007008
54	0x3d7e9eaf	0.06216305
55	0x3eed0133	0.46289977
56	0x3f859621	1.0436441
57	0x3f0e4929	0.55580384
58	0x3f1487ad	0.58019525
59	0xbec05c7c	-0.3757056
60	0x3eaefc46	0.34176844
61	0xbebd74d1	-0.37003186
62	0x3f0af7be	0.54284275
63	0xbf849af7	-1.0359792
64	0xbda5cdda	-0.08095904
65	0x3ec9efab	0.39440665
66	0x3dcf50be	0.10122822
67	0x3dbcb183	0.09213545
68	0x3ea1b0d7	0.3158023
69	0x3cdedff6	0.027206402
70	0xbe456616	-0.19277224
71	0x3ec133ef	0.37734935
72	0xbe7fa6e2	-0.24966004
73	0xbe6d05fb	-0.23146813
74	0x3f6f88f6	0.9356836
75	0x3fb33cff	1.400299
76	0x3f75772e	0.9588498
77	0x3ff01e87	1.8759316
78	0xbe8ad03f	-0.27112004
79	0x3ee9a2bc	0.4563197
80	0x3eaf45da	0.3423298
81	0xbf0b2e72	-0.54367745
82	0x3d5ad06c	0.053421423
83	0xbc220a4b	-0.009890149
84	0xbff99082	-1.9497225
85	0x3f873611	1.0563375
86	0x3f331967	0.69960636
87	0xbe9246d6	-0.2856967
88	0xbd0adf78	-0.033904523
89	0xbe6da7ca	-0.23208538
90	0xc001a103	-2.0254524
91	0x3eb3a1e2	0.35084444
92	0x3f17b343	0.59257907
93	0xbe669e57	-0.2252134
94	0xbe8700a8	-0.26367688
95	0x3cb0a33d	0.021562213
96	0xbe48168d	-0.19539852
97	0xc01d6b17	-2.4596612
98	0x3f2936bd	0.6609915
99	0xbe25906d	-0.16168375
100	0x3f024246	0.50882375
101	0xbdea022e	-0.11426197
102	0x3f2af941	0.6678658
103	0xbf25b516	-0.6472944
104	0x3f57fa76	0.8436655
105	0xbefe2839	-0.49640062
106	0xbfa71bc4	-1.3055348
107	0x3c0d3d29	0.008620539
108	0x3fae1bff	1.3602294
109	0xbf912569	-1.1339542
110	0x3fc9884f	1.5744723
111	0x3e0e5180	0.13898277
112	0xbff28872	-1.894789
113	0x3ece3e23	0.40281782
114	0x3e290408	0.16505444
115	0xbd29aa96	-0.04142245
116	0x3dc6329c	0.09677622
117	0x3f692d77	0.91085
118	0x3f7d6c99	0.9899383
119	0xbf09cd7f	-0.5382919
120	0xbf333416	-0.7000135
121	0xbd2e8f52	-0.04261715
122	0x3c38cd11	0.01127936
123	0x3f371eac	0.71531177
124	0xbf0e0d34	-0.55488896
125	0xbe829fe9	-0.25512627
126	0x3ea428c4	0.32062352
127	0x3fcf0ec5	1.6176382
128	0xbea08bb8	-0.31356597
129	0x3ef5c199	0.47999266
130	0xbf55e5da	-0.8355385
131	0x3e5fea60	0.2186675
132	0x3e0d950f	0.13826393
133	0x3d48f737	0.049063887
134	0x3e1624db	0.14662497
135	0xbdd9ceb2	-0.10635127
136	0xbf16be91	-0.5888453
137	0x3ed71430	0.4200759
138	0x3f51cc92	0.81952775
139	0x3f518dd2	0.81857026
140	0xbf8e9906	-1.1140449
141	0x3fbd99b7	1.4812535
142	0x3cf16ff2	0.029472325
143	0x3ef9f0e2	0.48816592
144	0x3f8656b0	1.0495205
145	0xbcae6abd	-0.021291131
146	0x3f8fb8f8	1.1228323
147	0x3f2ae2f8	0.66752577
148	0xbf568297	-0.83793014
149	0x3e324d05	0.17412193
150	0x3f81a01d	1.0126988
151	0x3ea75ee9	0.32689598
152	0x3e706740	0.23476887
153	0xbe234125	-0.1594282
154	0xbded76d7	-0.115949325
155	0x3eec5925	0.46161762
156	0x3f80f3a9	1.0074359
157	0x3e5415c7	0.20711432
158	0xbe0773da	-0.13227788
159	0x3e28036b	0.16407554
160	0x3eabdf96	0.3356902
161	0xbfbf34f5	-1.4938036
162	0xbfb15086	-1.3852699
163	0x3e87a3c7	0.2649214
164	0x3e2088c4	0.15677172
165	0x3e88a8f2	0.26691395
166	0x3f15753f	0.5838203
167	0xbd910339	-0.07080693
168	0xbe0a7423	-0.13520865
169	0xbecabfc5	-0.39599434
170	0xbf321600	-0.6956482
171	0xbf38e4fa	-0.7222439
172	0x3faa2409	1.3292247
173	0xbe9218df	-0.285346
174	0x3b6145eb	0.003437395
175	0x3de755f3	0.112956904
176	0xc0024384	-2.0353708
177	0x3dd7bd53	0.105341576
178	0x3e02de21	0.12780048
179	0xbe917d25	-0.2841579
180	0xbf163d49	-0.58687264
181	0x3f04a860	0.5181942
182	0x3e8fefcc	0.28112638
183	0x3e4dcfc3	0.20098786
184	0xbfde17aa	-1.7350972
185	0xbe5435fc	-0.20723718
186	0x3e6409e7	0.22269402
187	0x3e6480d9	0.22314776
188	0x3ebddea8	0.37083936
189	0x3ed57bce	0.41696018
190	0x3eca028d	0.3945507
191	0x3f5bcb14	0.8585675
192	0xbf10ff9c	-0.5664003
193	0x3f03b08b	0.5144126
194	0xbf7c4011	-0.9853526
195	0x3de9d375	0.11417285
196	0x3e6d9165	0.23199995
197	0x3d6c44cb	0.057682794
198	0x3df847c4	0.12123063
199	0xbe865903	-0.26239786
200	0xbe8fe525	-0.2810451
201	0x3e1bd7b5	0.15219004
202	0x3f743896	0.95398843
203	0x3ef49725	0.47771564
204	0xbfb952c4	-1.4478383
205	0x3f4904fa	0.7852322
206	0x3e960a91	0.29304937
207	0x3f473251	0.7781115
208	0x3f52e276	0.823768
209	0xbd520afd	-0.05128001
210	0x3fb13eb0	1.3847256
211	0x3f5dd784	0.86656976
212	0xbf9d0384	-1.2266698
213	0x3d13f354	0.036120728
214	0x3f743f99	0.9540954
215	0x3e8abedf	0.27098748
216	0x3eae2ee8	0.34020162
217	0x3d2aa7be	0.041663878
218	0x3f37330e	0.7156228
219	0x3ec087e3	0.37603673
220	0x3f6d231c	0.926317
221	0xbdf93054	-0.12167421
222	0xbee85e6e	-0.45384544
223	0xbf1803fd	-0.59381086
224	0x3e9a3f01	0.30126193
225	0xbfb5aa79	-1.4192649
226	0xbf135841	-0.5755654
227	0x3d881218	0.06644076
228	0x3f02bb79	0.5106731
229	0x3e480bbe	0.1953573
230	0x3e8994a0	0.26871204
231	0xbe6235a1	-0.2209077
232	0x3f96a701	1.1769716
233	0xbefb805a	-0.49121362
234	0xbf48a68a	-0.7837912
235	0xc06b26e7	-3.6742494
236	0x3fab28ef	1.3371867
237	0xbefe96a6	-0.4972431
238	0xbe9dda98	-0.30830836
239	0x3eb9354e	0.3617348
240	0xbff5b533	-1.9195923
241	0x3e71c84a	0.2361156
242	0xbe9bf152	-0.3045755
243	0xbee3265b	-0.443652
244	0xbe8600c5	-0.26172462
245	0xbe4653a2	-0.19367841
246	0x3e85ca5b	0.26130947
247	0x3ebd3cba	0.36960393
248	0xbfc6718b	-1.55034
249	0xbeac2882	-0.33624655
250	0x3ecb4ca5	0.39706913
251	0xbe2bc07f	-0.1677265
252	0x3e97b4d6	0.29630154
253	0x3f1dc1ec	0.61624026
254	0x3f0a0431	0.53912646
255	0x3efb03bb	0.49026284

fc2.bias f4 [64]
0	0x3f20f913	0.6288006
1	0x3d913fff	0.070922844
2	0xbdd86668	-0.105664074
3	0x3de76e86	0.113003775
4	0x3e9fbaba	0.3119715
5	0x3f22b520	0.63557625
6	0x3d5197e1	0.051170234
7	0x3d5bc908	0.053658515
8	0xbe0c2f3e	-0.13689896
9	0xbd892075	-0.06695644
10	0xbe0795ef	-0.13240789
11	0x3f034d7b	0.512901
12	0x3ccb7fe7	0.024841262
13	0x35e2d200	1.689943e-06
14	0x3a77170a	0.00094257353
15	0x3dcbca0b	0.09950646
16	0x3ef42b83	0.47689447
17	0xbe905488	-0.28189492
18	0xbd3d1c2e	-0.046169452
19	0x3e05c3b2	0.13062933
20	0xbd52a719	-0.051428888
21	0xbd817d39	-0.063227125
22	0x3efc06b6	0.4922387
23	0x3e8b12cd	0.2716278
24	0xbd76d9d5	-0.060266335
25	0x3b20d62e	0.0024541724
26	0x3ecb3149	0.3968604
27	0x3d19ce6b	0.03755037
28	0x3e20621e	0.15662429
29	0xbd1b645b	-0.037937503
30	0x3f0d280d	0.5513924
31	0xbd679527	-0.056538727
32	0x3f2d0de5	0.67599326
33	0x3f0f6b5e	0.56023204
34	0x3e00fa3f	0.12595461
35	0x3d3dc4d5	0.04633029
36	0x3c134046	0.008987492
37	0xbe21bd33	-0.1579483
38	0x3ede3c77	0.43405506
39	0x3dec79d8	0.11546677
40	0xbd943006	-0.07235722
41	0x3d964aa8	0.07338458
42	0x3f274709	0.65342766
43	0xbd7c2746	-0.06156089
44	0xbdc1995a	-0.094530776
45	0x3e41d7b9	0.18929948
46	0x3e2d9eb1	0.16955067
47	0x3f146be2	0.57977116
48	0xbdb5b0d0	-0.08871615
49	0x3d98b177	0.07455724
50	0x3ef78ccb	0.48349604
51	0x3f24aef8	0.6432948
52	0x3ec492d4	0.3839327
53	0x3f24e8ce	0.6441773
54	0x3d498b37	0.04920503
55	0x3ebcca0b	0.36872897
56	0x3dfa8f56	0.122343704
57	0x3dac5cd6	0.084161445
58	0x3dd7576b	0.105147205
59	0x3f2a0e7b	0.66428345
60	0x3f0e0e6c	0.55490756
61	0x3f10cc50	0.56561756
62	0x3f05900c	0.52172923
63	0x3db2b054	0.08725038

fc3.weight f4 [4, 64]
0	0x3fa7f780	1.3122406
1	0xbe98d564	-0.29850304
2	0xbf13982a	-0.5765406
3	0xbe943215	-0.2894446
4	0x3f893dc2	1.0721972
5	0x3fa13599	1.2594482
6	0xbef5b469	-0.47989205
7	0xbe9a5cf2	-0.30149037
8	0xbe9cc61c	-0.30619895
9	0xbe8e7bb4	-0.27828753
10	0xbf146ffe	-0.57983387
11	0x3fa6f528	1.3043566
12	0xbeb8189b	-0.35956272
13	0xbed10e5e	-0.40831274
14	0xbec2f6f0	-0.38079023
15	0x3d9b2c70	0.07576835
16	0x3f818eb9	1.012168
17	0xbe9f5c2e	-0.31125015
18	0xbf9b29c1	-1.2122117
19	0xbe942e99	-0.289418
20	0xbeb646a9	-0.35600784
21	0xbeb06a7c	-0.3445624
22	0x3f8bb537	1.0914677
23	0x3fcac846	1.5842369
24	0xbe781434	-0.24226457
25	0xbee2d5e4	-0.4430381
26	0x3f4d2b20	0.8014393
27	0xbef0dce2	-0.4704352
28	0xbe6c3b67	-0.23069535
29	0xbe96cbd4	-0.29452384
30	0x3fc8a265	1.5674559
31	0xbeef8ba7	-0.46786234
32	0x3f9f44c5	1.2442862
33	0x3f6a7379	0.9158245
34	0xbf2f47a1	-0.6846867
35	0xbeb0efee	-0.34558052
36	0xbe95287c	-0.2913245
37	0xbf0266d4	-0.50938153
38	0xbede2fc2	-0.4339581
39	0xbe7b275f	-0.24526738
40	0xbfc55238	-1.5415716
41	0xbedf63de	-0.4363088
42	0x3f9481db	1.1602129
43	0xbefa4357	-0.488795
44	0x3cd406d0	0.025882155
45	0xbee6a31f	-0.45046327
46	0xbebee6ff	-0.3728561
47	0x3f8f0c5f	1.117565
48	0xbec131fd	-0.3773345
49	0xbeaf3d91	-0.3422666
50	0xbf1a0cc2	-0.60175717
51	0x3fa91461	1.3209344
52	0x3f7a1376	0.97685945
53	0x3faff932	1.3747923
54	0x406816e5	3.6263974
55	0xbebc64b3	-0.36795577
56	0xbf301ffd	-0.6879881
57	0xbedc8919	-0.43073347
58	0xbffd8d65	-1.9808775
59	0xbeb71720	-0.3575983
60	0x3f8ac90c	1.0842605
61	0x3f91726f	1.1363047
62	0x3f9b8d52	1.2152503
63	0xbe9bbbb6	-0.3041665
64	0x3f835003	1.0258793
65	0xbee798f1	-0.45233873
66	0xbf3c180d	-0.734742
67	0xbd285e41	-0.041105513
68	0x3f11c2aa	0.5693766
69	0x3fa398c1	1.2780992
70	0xbe31b831	-0.1735542
71	0xbf237f55	-0.6386617
72	0xbf15465e	-0.58310497
73	0xbf15783e	-0.583866
74	0xbec97c34	-0.39352572
75	0x3f6d65e4	0.927336
76	0xbed8058d	-0.42191735
77	0xbf3ccae0	-0.7374706
78	0xbf20ac32	-0.6276275
79	0x3f8ee6d5	1.1164194
80	0x3f64ab34	0.89323735
81	0xbf276037	-0.6538119
82	0xbfafd9c9	-1.3738338
83	0xbe734e0b	-0.2376024
84	0xbef9d7d7	-0.48797485
85	0xbf1b9f1a	-0.60789645
86	0x3fa172f8	1.2613211
87	0x4007e890	2.1235695
88	0xbea3b3f2	-0.31973225
89	0xbeed3d37	-0.46335766
90	0x3f86214b	1.047891
91	0xbf15365b	-0.58286065
92	0xbf13326e	-0.57498825
93	0xbeee9288	-0.4659617
94	0x3fb26951	1.393839
95	0xbf68b566	-0.9090179
96	0x3f3dffa9	0.7421823
97	0x3f91477a	1.1349938
98	0xbecc91dd	-0.39955035
99	0xbea73fdf	-0.32665917
100	0xbf142daf	-0.5788221
101	0xbedb73cf	-0.42861792
102	0xbea95b6f	-0.3307757
103	0xbed163fc	-0.40896595
104	0xbf8bc6cd	-1.0920044
105	0xbeb4ccf9	-0.35312632
106	0x3fd6d42e	1.6783502
107	0xbebe3965	-0.37153164
108	0x3bf69c20	0.007525936
109	0xbe9c200d	-0.30493203
110	0xbebd09d0	-0.3692155
111	0x3f93e218	1.1553373
112	0xbf4da175	-0.8032449
113	0xbee569dc	-0.44807327
114	0x3e8e0dba	0.27744848
115	0x3fcadc3f	1.5848464
116	0x3f545b65	0.82951957
117	0x3f7d2e68	0.98898935
118	0x404124f3	3.0178802
119	0xbec9a103	-0.39380655
120	0xbf2dd786	-0.6790699
121	0xbf2bfed9	-0.6718574
122	0xbfcc966c	-1.5983405
123	0x3f444e10	0.76681614
124	0x3fb1659c	1.3859134
125	0x3f3c42c6	0.7353939
126	0x3f59d8ab	0.85096234
127	0xbe73520f	-0.23761772
128	0x3f8588c4	1.0432363
129	0xbf9be2e3	-1.2178615
130	0xbeb6a84f	-0.35675284
131	0xbf668efd	-0.9006193
132	0x3fa88541	1.3165666
133	0x3f9002de	1.1250875
134	0xbec60d3c	-0.38681972
135	0xbead0e55	-0.33799997
136	0xbecac6cb	-0.39604792
137	0xbe83f8ce	-0.2577576
138	0xbedbfe44	-0.42967427
139	0x3f928dff	1.1449584
140	0xbe91b95b	-0.28461727
141	0xbf215375	-0.6301797
142	0xbeef9b0c	-0.4679798
143	0xbf75e211	-0.96048075
144	0x3fbd5825	1.4792525
145	0xbf6dfe8a	-0.9296652
146	0xbfbc0ded	-1.469175
147	0xbee57972	-0.44819218
148	0xbed4fe6a	-0.41600353
149	0xbe9aac66	-0.30209655
150	0x3fb21bbe	1.3914716
151	0x3f80346f	1.0016001
152	0xbeeccbb1	-0.46249154
153	0xbf33a8e4	-0.7017958
154	0x3f9cfd8a	1.2264874
155	0xbf05854f	-0.5215654
156	0xbe2e2b9c	-0.17008823
157	0xbeccc21b	-0.3999184
158	0x3f881284	1.063065
159	0xbec72850	-0.38897943
160	0x3f88ae3b	1.0678171
161	0x3fdaa5b0	1.7081814
162	0xbf1f85a6	-0.62313306
163	0xbef5c1b0	-0.47999334
164	0xbe9b9c9e	-0.30392927
165	0xbe73324f	-0.2374966
166	0xbf1cdaee	-0.6127156
167	0xbe757b2a	-0.23972765
168	0xbfcf9ff0	-1.6220684
169	0xbee15cd1	-0.44016126
170	0x3f9b05fa	1.2111199
171	0xbee370be	-0.44421953
172	0x3dba6c0b	0.09102639
173	0xbeecf448	-0.46280122
174	0xbeb6c391	-0.3569608
175	0x3f8c18f9	1.0945121
176	0xbf0e1f33	-0.55516356
177	0xbea0a92c	-0.31379068
178	0x3f8e898b	1.1135725
179	0x3f76d792	0.96422684
180	0x3f0dfd17	0.5546431
181	0x3f5f4c4f	0.8722581
182	0x40654a49	3.582659
183	0xbe9a7b40	-0.30172157
184	0xbee36af2	-0.4441753
185	0xbef2722f	-0.4735274
186	0xbfcea2db	-1.614345
187	0xbf1bc1e0	-0.60842705
188	0x3fa6927b	1.3013452
189	0x3fa45a33	1.2840027
190	0x3f91ecd9	1.1400405
191	0xbee1d29f	-0.44106004
192	0x3fa76681	1.3078157
193	0xbebdc4b3	-0.37064132
194	0xbf0a17b5	-0.53942424
195	0xbee61fb8	-0.44946074
196	0x3f832961	1.0247003
197	0x3fb9f19a	1.4526856
198	0xbe937fbb	-0.28808388
199	0xbe8b1224	-0.27162278
200	0xbebd518b	-0.36976275
201	0xbf0de65d	-0.5542963
202	0xbed31b61	-0.41231826
203	0x3fcf1b33	1.6180176
204	0xbf02f90a	-0.51161253
205	0xbeae29d4	-0.34016287
206	0xbe9a0338	-0.3008058
207	0xbd57b07f	-0.052658554
208	0x3f8bd3e3	1.0924038
209	0xbf876740	-1.0578384
210	0xbfaf1666	-1.367871
211	0xbe8cb565	-0.27482143
212	0xbeb838fe	-0.35980982
213	0xbe9d6f3e	-0.30748934
214	0x3f73c8e3	0.95228404
215	0x3feb568e	1.8385789
216	0xbe87bd95	-0.26511827
217	0xbe8271dd	-0.25477496
218	0x3f498122	0.78712666
219	0xbf04b584	-0.5183947
220	0xbf1b476e	-0.6065587
221	0xbe8e586c	-0.27801836
222	0x3fbabb94	1.4588494
223	0xbea2003b	-0.316408
224	0x3f6770cc	0.9040649
225	0x3f4c682b	0.7984645
226	0xbeeb1cb5	-0.4592034
227	0xbef8f7d5	-0.4862658
228	0xbeef9a71	-0.46797517
229	0xbef3987b	-0.4757727
230	0x3bef6236	0.007305409
231	0xbeff68a2	-0.49884516
232	0xbfbad047	-1.4594811
233	0xbe8794cd	-0.26480713
234	0x3f2c235f	0.6724147
235	0xbf23037a	-0.6367718
236	0xbd99d280	-0.07510853
237	0xbec2af05	-0.38024154
238	0xbed82447	-0.42215177
239	0x3f814a32	1.0100768
240	0xbeeb047b	-0.45901856
241	0xbf151a7e	-0.5824355
242	0xbe6f44b7	-0.23366056
243	0x3fa3e1c1	1.280327
244	0x3f932ca1	1.1497995
245	0x3fbc4b51	1.4710485
246	0x404bbbce	3.1833377
247	0xbf0c2826	-0.5474876
248	0xbf5d332a	-0.86406195
249	0xbe9d0ce7	-0.30673906
250	0xc0159121	-2.336983
251	0xbe865393	-0.26235637
252	0x3fa53802	1.2907717
253	0x3f7efb54	0.99602246
254	0x3fc52b3a	1.5403817
255	0xbebb2fce	-0.3655991

fc3.bias f4 [4]
0	0xbda041f0	-0.078250766
1	0x3f1d8b92	0.6154109
2	0xbe5ea30f	-0.2174189
3	0xbe37ae44	-0.17937571
